…
e-07, 'lr': [0.0005]}, 'scoring': {'_name': 'bleu', 'pad': 1, 'eos': 2, 'unk': 3}, 'bpe': None, 'tokenizer': None, 'ema': {'_name': None, 'store_ema': False, 'ema_decay': 0.9999, 'ema_start_update': 0, 'ema_seed_model': None, 'ema_update_freq': 1, 'ema_fp32': False}}
2022-12-19 15:45:22 | INFO | fairseq.tasks.translation | [en] dictionary: 19184 types
2022-12-19 15:45:22 | INFO | fairseq.tasks.translation | [hi] dictionary: 33048 types
2022-12-19 15:45:27 | INFO | fairseq_cli.train | TransformerModel(
  (encoder): TransformerEncoderBase(
    (dropout_module): FairseqDropout()
    (embed_tokens): Embedding(19184, 1536, padding_idx=1)
    (cons_pos_embed): ConsPosiEmb()
    (seg_embed): Embedding(1024, 1536, padding_idx=1)
    (embed_positions): SinusoidalPositionalEmbedding()
    (layers): ModuleList(
      (0): TransformerEncoderLayerBase(
        (self_attn): MultiheadAttention(
          (dropout_module): FairseqDropout()
          (k_proj): Linear(in_features=1536, out_features=1536, bias=True)
          (v_proj): Linear(in_features=1536, out_features=1536, bias=True)
          (q_proj): Linear(in_features=1536, out_features=1536, bias=True)
          (out_proj): Linear(in_features=1536, out_features=1536, bias=True)
        )
        (self_attn_layer_norm): LayerNorm((1536,), eps=1e-05, elementwise_affine=True)
        (dropout_module): FairseqDropout()
        (activation_dropout_module): FairseqDropout()
        (fc1): Linear(in_features=1536, out_features=4096, bias=True)
        (fc2): Linear(in_features=4096, out_features=1536, bias=True)
        (final_layer_norm): LayerNorm((1536,), eps=1e-05, elementwise_affine=True)
      )
      (1): TransformerEncoderLayerBase(
        (self_attn): MultiheadAttention(
          (dropout_module): FairseqDropout()
          (k_proj): Linear(in_features=1536, out_features=1536, bias=True)
          (v_proj): Linear(in_features=1536, out_features=1536, bias=True)
          (q_proj): Linear(in_features=1536, out_features=1536, bias=True)
          (out_proj): Linear(in_features=1536, out_features=1536, bias=True)
        )
        (self_attn_layer_norm): LayerNorm((1536,), eps=1e-05, elementwise_affine=True)
        (dropout_module): FairseqDropout()
        (activation_dropout_module): FairseqDropout()
        (fc1): Linear(in_features=1536, out_features=4096, bias=True)
        (fc2): Linear(in_features=4096, out_features=1536, bias=True)
        (final_layer_norm): LayerNorm((1536,), eps=1e-05, elementwise_affine=True)
      )
      (2): TransformerEncoderLayerBase(
        (self_attn): MultiheadAttention(
          (dropout_module): FairseqDropout()
          (k_proj): Linear(in_features=1536, out_features=1536, bias=True)
          (v_proj): Linear(in_features=1536, out_features=1536, bias=True)
          (q_proj): Linear(in_features=1536, out_features=1536, bias=True)
          (out_proj): Linear(in_features=1536, out_features=1536, bias=True)
        )
        (self_attn_layer_norm): LayerNorm((1536,), eps=1e-05, elementwise_affine=True)
        (dropout_module): FairseqDropout()
        (activation_dropout_module): FairseqDropout()
        (fc1): Linear(in_features=1536, out_features=4096, bias=True)
        (fc2): Linear(in_features=4096, out_features=1536, bias=True)
        (final_layer_norm): LayerNorm((1536,), eps=1e-05, elementwise_affine=True)
      )
      (3): TransformerEncoderLayerBase(
        (self_attn): MultiheadAttention(
          (dropout_module): FairseqDropout()
          (k_proj): Linear(in_features=1536, out_features=1536, bias=True)
          (v_proj): Linear(in_features=1536, out_features=1536, bias=True)
          (q_proj): Linear(in_features=1536, out_features=1536, bias=True)
          (out_proj): Linear(in_features=1536, out_features=1536, bias=True)
        )
        (self_attn_layer_norm): LayerNorm((1536,), eps=1e-05, elementwise_affine=True)
        (dropout_module): FairseqDropout()
        (activation_dropout_module): FairseqDropout()
        (fc1): Linear(in_features=1536, out_features=4096, bias=True)
        (fc2): Linear(in_features=4096, out_features=1536, bias=True)
        (final_layer_norm): LayerNorm((1536,), eps=1e-05, elementwise_affine=True)
      )
      (4): TransformerEncoderLayerBase(
        (self_attn): MultiheadAttention(
          (dropout_module): FairseqDropout()
          (k_proj): Linear(in_features=1536, out_features=1536, bias=True)
          (v_proj): Linear(in_features=1536, out_features=1536, bias=True)
          (q_proj): Linear(in_features=1536, out_features=1536, bias=True)
          (out_proj): Linear(in_features=1536, out_features=1536, bias=True)
        )
        (self_attn_layer_norm): LayerNorm((1536,), eps=1e-05, elementwise_affine=True)
        (dropout_module): FairseqDropout()
        (activation_dropout_module): FairseqDropout()
        (fc1): Linear(in_features=1536, out_features=4096, bias=True)
        (fc2): Linear(in_features=4096, out_features=1536, bias=True)
        (final_layer_norm): LayerNorm((1536,), eps=1e-05, elementwise_affine=True)
      )
      (5): TransformerEncoderLayerBase(
        (self_attn): MultiheadAttention(
          (dropout_module): FairseqDropout()
          (k_proj): Linear(in_features=1536, out_features=1536, bias=True)
          (v_proj): Linear(in_features=1536, out_features=1536, bias=True)
          (q_proj): Linear(in_features=1536, out_features=1536, bias=True)
          (out_proj): Linear(in_features=1536, out_features=1536, bias=True)
        )
        (self_attn_layer_norm): LayerNorm((1536,), eps=1e-05, elementwise_affine=True)
        (dropout_module): FairseqDropout()
        (activation_dropout_module): FairseqDropout()
        (fc1): Linear(in_features=1536, out_features=4096, bias=True)
        (fc2): Linear(in_features=4096, out_features=1536, bias=True)
        (final_layer_norm): LayerNorm((1536,), eps=1e-05, elementwise_affine=True)
      )
    )
  )
  (decoder): TransformerDecoderBase(
    (dropout_module): FairseqDropout()
    (embed_tokens): Embedding(33048, 1536, padding_idx=1)
    (embed_positions): SinusoidalPositionalEmbedding()
    (layers): ModuleList(
      (0): TransformerDecoderLayerBase(
        (dropout_module): FairseqDropout()
        (self_attn): MultiheadAttention(
          (dropout_module): FairseqDropout()
          (k_proj): Linear(in_features=1536, out_features=1536, bias=True)
          (v_proj): Linear(in_features=1536, out_features=1536, bias=True)
          (q_proj): Linear(in_features=1536, out_features=1536, bias=True)
          (out_proj): Linear(in_features=1536, out_features=1536, bias=True)
        )
        (activation_dropout_module): FairseqDropout()
        (self_attn_layer_norm): LayerNorm((1536,), eps=1e-05, elementwise_affine=True)
        (encoder_attn): MultiheadAttention(
          (dropout_module): FairseqDropout()
          (k_proj): Linear(in_features=1536, out_features=1536, bias=True)
          (v_proj): Linear(in_features=1536, out_features=1536, bias=True)
          (q_proj): Linear(in_features=1536, out_features=1536, bias=True)
          (out_proj): Linear(in_features=1536, out_features=1536, bias=True)
        )
        (encoder_attn_layer_norm): LayerNorm((1536,), eps=1e-05, elementwise_affine=True)
        (fc1): Linear(in_features=1536, out_features=4096, bias=True)
        (fc2): Linear(in_features=4096, out_features=1536, bias=True)
        (final_layer_norm): LayerNorm((1536,), eps=1e-05, elementwise_affine=True)
      )
      (1): TransformerDecoderLayerBase(
        (dropout_module): FairseqDropout()
        (self_attn): MultiheadAttention(
          (dropout_module): FairseqDropout()
          (k_proj): Linear(in_features=1536, out_features=1536, bias=True)
          (v_proj): Linear(in_features=1536, out_features=1536, bias=True)
          (q_proj): Linear(in_features=1536, out_features=1536, bias=True)
          (out_proj): Linear(in_features=1536, out_features=1536, bias=True)
        )
        (activation_dropout_module): FairseqDropout()
        (self_attn_layer_norm): LayerNorm((1536,), eps=1e-05, elementwise_affine=True)
        (encoder_attn): MultiheadAttention(
          (dropout_module): FairseqDropout()
          (k_proj): Linear(in_features=1536, out_features=1536, bias=True)
          (v_proj): Linear(in_features=1536, out_features=1536, bias=True)
          (q_proj): Linear(in_features=1536, out_features=1536, bias=True)
          (out_proj): Linear(in_features=1536, out_features=1536, bias=True)
        )
        (encoder_attn_layer_norm): LayerNorm((1536,), eps=1e-05, elementwise_affine=True)
        (fc1): Linear(in_features=1536, out_features=4096, bias=True)
        (fc2): Linear(in_features=4096, out_features=1536, bias=True)
        (final_layer_norm): LayerNorm((1536,), eps=1e-05, elementwise_affine=True)
      )
      (2): TransformerDecoderLayerBase(
        (dropout_module): FairseqDropout()
        (self_attn): MultiheadAttention(
          (dropout_module): FairseqDropout()
          (k_proj): Linear(in_features=1536, out_features=1536, bias=True)
          (v_proj): Linear(in_features=1536, out_features=1536, bias=True)
          (q_proj): Linear(in_features=1536, out_features=1536, bias=True)
          (out_proj): Linear(in_features=1536, out_features=1536, bias=True)
        )
        (activation_dropout_module): FairseqDropout()
        (self_attn_layer_norm): LayerNorm((1536,), eps=1e-05, elementwise_affine=True)
        (encoder_attn): MultiheadAttention(
          (dropout_module): FairseqDropout()
          (k_proj): Linear(in_features=1536, out_features=1536, bias=True)
          (v_proj): Linear(in_features=1536, out_features=1536, bias=True)
          (q_proj): Linear(in_features=1536, out_features=1536, bias=True)
          (out_proj): Linear(in_features=1536, out_features=1536, bias=True)
        )
        (encoder_attn_layer_norm): LayerNorm((1536,), eps=1e-05, elementwise_affine=True)
        (fc1): Linear(in_features=1536, out_features=4096, bias=True)
        (fc2): Linear(in_features=4096, out_features=1536, bias=True)
        (final_layer_norm): LayerNorm((1536,), eps=1e-05, elementwise_affine=True)
      )
      (3): TransformerDecoderLayerBase(
        (dropout_module): FairseqDropout()
        (self_attn): MultiheadAttention(
          (dropout_module): FairseqDropout()
          (k_proj): Linear(in_features=1536, out_features=1536, bias=True)
          (v_proj): Linear(in_features=1536, out_features=1536, bias=True)
          (q_proj): Linear(in_features=1536, out_features=1536, bias=True)
          (out_proj): Linear(in_features=1536, out_features=1536, bias=True)
        )
        (activation_dropout_module): FairseqDropout()
        (self_attn_layer_norm): LayerNorm((1536,), eps=1e-05, elementwise_affine=True)
        (encoder_attn): MultiheadAttention(
          (dropout_module): FairseqDropout()
          (k_proj): Linear(in_features=1536, out_features=1536, bias=True)
          (v_proj): Linear(in_features=1536, out_features=1536, bias=True)
          (q_proj): Linear(in_features=1536, out_features=1536, bias=True)
          (out_proj): Linear(in_features=1536, out_features=1536, bias=True)
        )
        (encoder_attn_layer_norm): LayerNorm((1536,), eps=1e-05, elementwise_affine=True)
        (fc1): Linear(in_features=1536, out_features=4096, bias=True)
        (fc2): Linear(in_features=4096, out_features=1536, bias=True)
        (final_layer_norm): LayerNorm((1536,), eps=1e-05, elementwise_affine=True)
      )
      (4): TransformerDecoderLayerBase(
        (dropout_module): FairseqDropout()
        (self_attn): MultiheadAttention(
          (dropout_module): FairseqDropout()
          (k_proj): Linear(in_features=1536, out_features=1536, bias=True)
          (v_proj): Linear(in_features=1536, out_features=1536, bias=True)
          (q_proj): Linear(in_features=1536, out_features=1536, bias=True)
          (out_proj): Linear(in_features=1536, out_features=1536, bias=True)
        )
        (activation_dropout_module): FairseqDropout()
        (self_attn_layer_norm): LayerNorm((1536,), eps=1e-05, elementwise_affine=True)
        (encoder_attn): MultiheadAttention(
          (dropout_module): FairseqDropout()
          (k_proj): Linear(in_features=1536, out_features=1536, bias=True)
          (v_proj): Linear(in_features=1536, out_features=1536, bias=True)
          (q_proj): Linear(in_features=1536, out_features=1536, bias=True)
          (out_proj): Linear(in_features=1536, out_features=1536, bias=True)
        )
        (encoder_attn_layer_norm): LayerNorm((1536,), eps=1e-05, elementwise_affine=True)
        (fc1): Linear(in_features=1536, out_features=4096, bias=True)
        (fc2): Linear(in_features=4096, out_features=1536, bias=True)
        (final_layer_norm): LayerNorm((1536,), eps=1e-05, elementwise_affine=True)
      )
      (5): TransformerDecoderLayerBase(
        (dropout_module): FairseqDropout()
        (self_attn): MultiheadAttention(
          (dropout_module): FairseqDropout()
          (k_proj): Linear(in_features=1536, out_features=1536, bias=True)
          (v_proj): Linear(in_features=1536, out_features=1536, bias=True)
          (q_proj): Linear(in_features=1536, out_features=1536, bias=True)
          (out_proj): Linear(in_features=1536, out_features=1536, bias=True)
        )
        (activation_dropout_module): FairseqDropout()
        (self_attn_layer_norm): LayerNorm((1536,), eps=1e-05, elementwise_affine=True)
        (encoder_attn): MultiheadAttention(
          (dropout_module): FairseqDropout()
          (k_proj): Linear(in_features=1536, out_features=1536, bias=True)
          (v_proj): Linear(in_features=1536, out_features=1536, bias=True)
          (q_proj): Linear(in_features=1536, out_features=1536, bias=True)
          (out_proj): Linear(in_features=1536, out_features=1536, bias=True)
        )
        (encoder_attn_layer_norm): LayerNorm((1536,), eps=1e-05, elementwise_affine=True)
        (fc1): Linear(in_features=1536, out_features=4096, bias=True)
        (fc2): Linear(in_features=4096, out_features=1536, bias=True)
        (final_layer_norm): LayerNorm((1536,), eps=1e-05, elementwise_affine=True)
      )
    )
    (output_projection): Linear(in_features=1536, out_features=33048, bias=False)
    (ptrnet): PointerNet(
      (linear): Linear(in_features=3072, out_features=1, bias=True)
    )
  )
)
2022-12-19 15:45:27 | INFO | fairseq_cli.train | task: TranslationTask
2022-12-19 15:45:27 | INFO | fairseq_cli.train | model: TransformerModel
2022-12-19 15:45:27 | INFO | fairseq_cli.train | criterion: LabelSmoothedCrossEntropyCriterion
2022-12-19 15:45:27 | INFO | fairseq_cli.train | num. shared model params: 453,700,609 (num. trained: 453,700,609)
…
